
TRAINING OVERVIEW
-------------------------------
OPTIMIZER:
 Adam (
Parameter Group 0
    amsgrad: False
    betas: (0.9, 0.999)
    eps: 1e-08
    lr: 5e-05
    weight_decay: 0.0001
) 
-------------------------------
LOSS FUNCTION:
 MSELoss() 
-------------------------------
MODEL ARCHITECTURE:
 MRCNetwork(
  (cnn_network): Sequential(
    (0): ResidualConvBlock(
      (nonlinear): ReLU()
      (layer1): Sequential(
        (0): Conv2d(1, 16, kernel_size=(3, 3), stride=(1, 1), padding=(1, 1))
        (1): ReLU()
      )
      (layer2): Sequential(
        (0): Conv2d(16, 16, kernel_size=(3, 3), stride=(1, 1), padding=(1, 1))
        (1): ReLU()
      )
      (downsampler): Sequential(
        (0): Conv2d(1, 16, kernel_size=(3, 3), stride=(1, 1), padding=(1, 1))
      )
    )
    (1): Dropout(p=0.25, inplace=False)
    (2): Conv2d(16, 16, kernel_size=(3, 3), stride=(2, 2))
    (3): Dropout(p=0.25, inplace=False)
    (4): ResidualConvBlock(
      (nonlinear): ReLU()
      (layer1): Sequential(
        (0): Conv2d(16, 32, kernel_size=(3, 3), stride=(1, 1), padding=(1, 1))
        (1): ReLU()
      )
      (layer2): Sequential(
        (0): Conv2d(32, 32, kernel_size=(3, 3), stride=(1, 1), padding=(1, 1))
        (1): ReLU()
      )
      (downsampler): Sequential(
        (0): Conv2d(16, 32, kernel_size=(3, 3), stride=(1, 1), padding=(1, 1))
      )
    )
    (5): Dropout(p=0.25, inplace=False)
    (6): Conv2d(32, 32, kernel_size=(3, 3), stride=(2, 2))
    (7): ResidualConvBlock(
      (nonlinear): ReLU()
      (layer1): Sequential(
        (0): Conv2d(32, 64, kernel_size=(3, 3), stride=(1, 1), padding=(1, 1))
        (1): ReLU()
      )
      (layer2): Sequential(
        (0): Conv2d(64, 64, kernel_size=(3, 3), stride=(1, 1), padding=(1, 1))
        (1): ReLU()
      )
      (downsampler): Sequential(
        (0): Conv2d(32, 64, kernel_size=(3, 3), stride=(1, 1), padding=(1, 1))
      )
    )
    (8): Dropout(p=0.25, inplace=False)
    (9): ResidualConvBlock(
      (nonlinear): ReLU()
      (layer1): Sequential(
        (0): Conv2d(64, 64, kernel_size=(3, 3), stride=(1, 1), padding=(1, 1))
        (1): ReLU()
      )
      (layer2): Sequential(
        (0): Conv2d(64, 64, kernel_size=(3, 3), stride=(1, 1), padding=(1, 1))
        (1): ReLU()
      )
    )
    (10): Dropout(p=0.25, inplace=False)
    (11): Conv2d(64, 64, kernel_size=(3, 3), stride=(2, 2))
    (12): ResidualConvBlock(
      (nonlinear): ReLU()
      (layer1): Sequential(
        (0): Conv2d(64, 128, kernel_size=(3, 3), stride=(1, 1), padding=(1, 1))
        (1): ReLU()
      )
      (layer2): Sequential(
        (0): Conv2d(128, 128, kernel_size=(3, 3), stride=(1, 1), padding=(1, 1))
        (1): ReLU()
      )
      (downsampler): Sequential(
        (0): Conv2d(64, 128, kernel_size=(3, 3), stride=(1, 1), padding=(1, 1))
      )
    )
    (13): Dropout(p=0.25, inplace=False)
    (14): ResidualConvBlock(
      (nonlinear): ReLU()
      (layer1): Sequential(
        (0): Conv2d(128, 128, kernel_size=(3, 3), stride=(1, 1), padding=(1, 1))
        (1): ReLU()
      )
      (layer2): Sequential(
        (0): Conv2d(128, 128, kernel_size=(3, 3), stride=(1, 1), padding=(1, 1))
        (1): ReLU()
      )
    )
    (15): Dropout(p=0.25, inplace=False)
    (16): Conv2d(128, 128, kernel_size=(3, 3), stride=(2, 2))
    (17): Flatten(start_dim=1, end_dim=-1)
    (18): Linear(in_features=4608, out_features=64, bias=True)
    (19): ReLU()
    (20): Dropout(p=0.25, inplace=False)
  )
  (feat_network): Sequential(
    (0): Linear(in_features=67, out_features=16, bias=True)
    (1): ReLU()
    (2): Linear(in_features=16, out_features=1, bias=True)
  )
) 
-------------------------------
OTHER:
Training with batch size of 32
Running on device cuda:1
Split 10.00% of data for validation data
Preparing to train in parallel: main device on cuda:1, all devices on [1]
Will save model to /nfs/home/khom/test_projects/CNNTraining/models/base_model_1.pth
-------------------------------

Building MRC image data (mode hdf5) from /nfs/home/khom/data120.hdf5
…
