
TRAINING OVERVIEW
-------------------------------
OPTIMIZER:
 Adam (
Parameter Group 0
    amsgrad: False
    betas: (0.9, 0.999)
    eps: 1e-08
    lr: 1e-05
    weight_decay: 0.0001
) 
-------------------------------
LOSS FUNCTION:
 MSELoss() 
-------------------------------
MODEL ARCHITECTURE:
 MRCNetwork(
  (cnn_network): Sequential(
    (0): ResidualConvBlock(
      (nonlinear): ReLU()
      (layer1): Sequential(
        (0): Conv2d(1, 16, kernel_size=(3, 3), stride=(1, 1), padding=(1, 1))
        (1): ReLU()
      )
      (layer2): Sequential(
        (0): Conv2d(16, 16, kernel_size=(3, 3), stride=(1, 1), padding=(1, 1))
        (1): ReLU()
      )
      (downsampler): Sequential(
        (0): Conv2d(1, 16, kernel_size=(3, 3), stride=(1, 1), padding=(1, 1))
      )
    )
    (1): Dropout(p=0.25, inplace=False)
    (2): ResidualConvBlock(
      (nonlinear): ReLU()
      (layer1): Sequential(
        (0): Conv2d(16, 16, kernel_size=(3, 3), stride=(1, 1), padding=(1, 1))
        (1): ReLU()
      )
      (layer2): Sequential(
        (0): Conv2d(16, 16, kernel_size=(3, 3), stride=(1, 1), padding=(1, 1))
        (1): ReLU()
      )
      (downsampler): Sequential(
        (0): Conv2d(16, 16, kernel_size=(3, 3), stride=(1, 1), padding=(1, 1))
      )
    )
    (3): Dropout(p=0.25, inplace=False)
    (4): Conv2d(16, 16, kernel_size=(3, 3), stride=(2, 2))
    (5): Dropout(p=0.25, inplace=False)
    (6): ResidualConvBlock(
      (nonlinear): ReLU()
      (layer1): Sequential(
        (0): Conv2d(16, 32, kernel_size=(3, 3), stride=(1, 1), padding=(1, 1))
        (1): ReLU()
      )
      (layer2): Sequential(
        (0): Conv2d(32, 32, kernel_size=(3, 3), stride=(1, 1), padding=(1, 1))
        (1): ReLU()
      )
      (downsampler): Sequential(
        (0): Conv2d(16, 32, kernel_size=(3, 3), stride=(1, 1), padding=(1, 1))
      )
    )
    (7): Dropout(p=0.25, inplace=False)
    (8): ResidualConvBlock(
      (nonlinear): ReLU()
      (layer1): Sequential(
        (0): Conv2d(32, 32, kernel_size=(3, 3), stride=(1, 1), padding=(1, 1))
        (1): ReLU()
      )
      (layer2): Sequential(
        (0): Conv2d(32, 32, kernel_size=(3, 3), stride=(1, 1), padding=(1, 1))
        (1): ReLU()
      )
      (downsampler): Sequential(
        (0): Conv2d(32, 32, kernel_size=(3, 3), stride=(1, 1), padding=(1, 1))
      )
    )
    (9): Dropout(p=0.25, inplace=False)
    (10): Conv2d(32, 32, kernel_size=(3, 3), stride=(2, 2))
    (11): ResidualConvBlock(
      (nonlinear): ReLU()
      (layer1): Sequential(
        (0): Conv2d(32, 64, kernel_size=(3, 3), stride=(1, 1), padding=(1, 1))
        (1): ReLU()
      )
      (layer2): Sequential(
        (0): Conv2d(64, 64, kernel_size=(3, 3), stride=(1, 1), padding=(1, 1))
        (1): ReLU()
      )
      (downsampler): Sequential(
        (0): Conv2d(32, 64, kernel_size=(3, 3), stride=(1, 1), padding=(1, 1))
      )
    )
    (12): Dropout(p=0.25, inplace=False)
    (13): ResidualConvBlock(
      (nonlinear): ReLU()
      (layer1): Sequential(
        (0): Conv2d(64, 64, kernel_size=(3, 3), stride=(1, 1), padding=(1, 1))
        (1): ReLU()
      )
      (layer2): Sequential(
        (0): Conv2d(64, 64, kernel_size=(3, 3), stride=(1, 1), padding=(1, 1))
        (1): ReLU()
      )
    )
    (14): Dropout(p=0.25, inplace=False)
    (15): ResidualConvBlock(
      (nonlinear): ReLU()
      (layer1): Sequential(
        (0): Conv2d(64, 64, kernel_size=(3, 3), stride=(1, 1), padding=(1, 1))
        (1): ReLU()
      )
      (layer2): Sequential(
        (0): Conv2d(64, 64, kernel_size=(3, 3), stride=(1, 1), padding=(1, 1))
        (1): ReLU()
      )
    )
    (16): Dropout(p=0.25, inplace=False)
    (17): Conv2d(64, 64, kernel_size=(3, 3), stride=(2, 2))
    (18): ResidualConvBlock(
      (nonlinear): ReLU()
      (layer1): Sequential(
        (0): Conv2d(64, 128, kernel_size=(3, 3), stride=(1, 1), padding=(1, 1))
        (1): ReLU()
      )
      (layer2): Sequential(
        (0): Conv2d(128, 128, kernel_size=(3, 3), stride=(1, 1), padding=(1, 1))
        (1): ReLU()
      )
      (downsampler): Sequential(
        (0): Conv2d(64, 128, kernel_size=(3, 3), stride=(1, 1), padding=(1, 1))
      )
    )
    (19): Dropout(p=0.25, inplace=False)
    (20): ResidualConvBlock(
      (nonlinear): ReLU()
      (layer1): Sequential(
        (0): Conv2d(128, 128, kernel_size=(3, 3), stride=(1, 1), padding=(1, 1))
        (1): ReLU()
      )
      (layer2): Sequential(
        (0): Conv2d(128, 128, kernel_size=(3, 3), stride=(1, 1), padding=(1, 1))
        (1): ReLU()
      )
    )
    (21): Dropout(p=0.25, inplace=False)
    (22): ResidualConvBlock(
      (nonlinear): ReLU()
      (layer1): Sequential(
        (0): Conv2d(128, 128, kernel_size=(3, 3), stride=(1, 1), padding=(1, 1))
        (1): ReLU()
      )
      (layer2): Sequential(
        (0): Conv2d(128, 128, kernel_size=(3, 3), stride=(1, 1), padding=(1, 1))
        (1): ReLU()
      )
    )
    (23): Dropout(p=0.25, inplace=False)
    (24): Conv2d(128, 128, kernel_size=(3, 3), stride=(2, 2))
    (25): AdaptiveAvgPool2d(output_size=(6, 6))
    (26): Dropout(p=0.25, inplace=False)
    (27): Flatten(start_dim=1, end_dim=-1)
    (28): Linear(in_features=4608, out_features=64, bias=True)
    (29): ReLU()
    (30): Dropout(p=0.25, inplace=False)
  )
  (feat_network): Sequential(
    (0): Linear(in_features=67, out_features=16, bias=True)
    (1): ReLU()
    (2): Linear(in_features=16, out_features=1, bias=True)
  )
) 
-------------------------------
OTHER:
Training with batch size of 1
Running on device cuda:0
Split 10.00% of data for validation data
Preparing to train in parallel: main device on cuda:0, all devices on [0, 1]
Will save model to /nfs/home/khom/test_projects/CNNTraining/models/experiment_model_1.pth
-------------------------------

Fetching MRC image data (mode: hdf5) from /nfs/home/khom/data-vlen2.hdf5
…
